zhanghanyu/Pytorch/5.27/model.pkl (torch_old, 2372 bytes, 5 tensors)

linear1.weight f4 [10, 13]
-0.23049484 0.29821718 0.0057469197 -0.08822647 -0.11727885 0.4094945 0.015053204 -0.12143746
0.15911952 -0.14351428 0.003732936 0.1538715 -0.5981436 -0.23397297 0.15586144 0.1443989
-0.1474131 -0.024787946 -0.06784618 0.09627382 0.3350644 -0.2737922 -0.1391304 0.15897243
0.19727549 0.1453237 -0.14979662 0.25250545 -0.1626178 -0.17992252 -0.2728971 -0.20985839
0.13922608 0.11899173 -0.015739918 -0.14157018 -0.20574382 -0.214715 -0.25276467 -0.16847
-0.08445249 0.15203398 0.16574161 -0.08888383 0.17944123 0.03608257 -0.3897558 0.20120518
-0.0040677437 -0.008911693 0.09490613 -0.66810906 -0.16995968 -0.07488029 0.20033145 -0.07213096
-0.032842606 -0.17763618 -0.27186656 0.18391132 0.09206 0.09682754 0.12775862 -0.099928364
-0.15005341 0.06482568 0.19466245 0.16670083 0.20404346 0.15189959 -0.40685278 0.071598105
-0.054068193 -0.029470816 0.056513663 0.32843944 0.24610282 0.31673422 -0.24861556 -0.17651498
0.02348432 0.15055758 -0.24794036 -0.24450988 -0.07780677 -0.23830852 -0.24057475 0.22320601
-0.15610206 -0.13650207 -0.2532699 0.10412021 0.16954672 -0.14450122 -0.13220462 0.079857044
0.2709883 -0.15714282 -0.26988265 -0.06941508 0.27903306 0.05780618 0.078356996 0.004990144
0.13717337 0.25062808 -0.24261074 0.10342127 -0.019534247 0.014416973 -0.14422873 0.2291131
-0.18664782 -0.20542997 0.028745916 -0.14214312 0.08520726 0.17384121 0.15296853 -0.15163262
-0.011713328 0.20388621 0.40832302 0.11296491 -0.2214937 -0.07797102 0.002087114 0.06833456
0.14542642 -0.053857572
00000000: d706 6cbe ecaf 983e a850 bc3b 14b0 b4bd
00000010: e52f f0bd 43a9 d13e b7a1 763c 34b4 f8bd
00000020: 3af0 223e 68f5 12be 46a4 743b 7e90 1d3e
00000030: f01f 19bf 9c96 6fbe 249a 1f3e 4edd 133e
00000040: 76f3 16be 1710 cbbc f0f2 8abd 352b c53d
00000050: 908d ab3e 7e2e 8cbe 3378 0ebe abc9 223e
00000060: 9602 4a3e bccf 143e 4964 19be 6548 813e
00000070: 4885 26be 9c3d 38be 2bb9 8bbe 1ee5 56be
00000080: 4891 0e3e f0b1 f33d 00f1 80bc c6f7 10be
00000090: 82ae 52be 40de 5bbe 5f6a 81be 6683 2cbe
000000a0: 6df5 acbd ccae 1b3e 2bb8 293e ba08 b6bd
000000b0: 71bf 373e 51cb 133d 128e c7be bb08 4e3e
000000c0: b54a 85bb 5902 12bc 255e c23d 3209 2bbf
000000d0: e909 2ebe d65a 99bd b023 4d3e 66b9 93bd
000000e0: f885 06bd 42e6 35be 1832 8bbe 4053 3c3e
000000f0: f489 bc3d 844d c63d 28d3 023e 3ea7 ccbd
00000100: 9aa7 19be 53c3 843d 9855 473e 9fb3 2a3e
00000110: c5f0 503e 918b 1b3e 024f d0be 07a2 923d
00000120: 9c76 5dbd c86c f1bc df7a 673d 3729 a83e
00000130: 6102 7c3e fd2a a23e 1495 7ebe 58c0 34be
00000140: 3062 c03c c42b 1a3e 14e4 7dbe cc60 7abe
00000150: 2859 9fbd 2607 74be 3a59 76be 1e90 643e
00000160: 38d9 1fbe 33c7 0bbe 98ac 81be fa3c d53d
00000170: a89d 2d3e 21f8 13be a660 07be 178c a33d
00000180: fabe 8a3e 0cea 20be 0f2e 8abe 7e29 8ebd
00000190: 6cdd 8e3e 2cc6 6c3d a279 a03d 5d84 a33b
000001a0: 2d77 0c3e 5352 803e f36e 78be 88ce d33d
000001b0: 4906 a0bc 2b35 6c3c b2b0 13be a09c 6a3e
000001c0: 9b20 3fbe 3c5c 52be 8e7c eb3c f78d 11be
000001d0: 2581 ae3d 6e03 323e c8a3 1c3e 9545 1bbe
000001e0: 42e9 3fbc 8cc7 503e b70f d13e 265a e73d
000001f0: 3fcf 62be 45af 9fbd f6c7 083b fdf2 8b3d
00000200: aaea 143e c299 5cbd

linear1.bias f4 [10]
0.18892896 0.23051256 -0.16657388 0.18158264 -0.114782706 0.29153684 -0.18304408 0.22987147
0.055234335 -0.14151168
00000000: 9876 413e 7c0b 6c3e 5892 2abe cdf0 393e
00000010: 3213 ebbd 5144 953e e86f 3bbe 6d63 6b3e
00000020: 663d 623d 70e8 10be

linear2.weight f4 [15, 10]
-0.120857954 -0.25702098 0.30973664 0.08891934 0.304576 0.1809195 0.27869162 -0.28270617
-0.08111736 0.09782526 -0.1298295 -0.16832498 -0.2364905 0.13259995 -0.13090055 0.0599207
-0.03714502 -0.21581689 -0.29840353 0.24840316 0.21745664 -0.054184496 0.26757059 0.12473131
0.2120556 -0.11732734 -0.18583804 0.19154641 -0.119078234 0.15673986 0.18800677 -0.14146058
-0.27189767 0.23168778 -0.1453221 -0.03286981 -0.12628283 -0.21595305 0.15720665 0.1333203
-0.31424448 0.26434684 -0.18205154 -0.3896529 0.06778014 0.32460496 -0.03524202 -0.011720263
0.16522904 0.10994381 -0.18722704 0.3417404 0.14331073 -0.25633913 0.018317401 0.15414688
-0.22029665 0.098771945 0.08113921 0.09019928 -0.04769236 -0.12975757 -0.13235694 -0.18156748
-0.024621427 -0.0001629293 0.30273166 -0.27682588 -0.13410915 0.07138601 -0.29427212 0.23677737
-0.113193646 0.29565424 -0.09118171 0.11297188 0.2727581 -0.33792228 -0.20437597 -0.23272961
-0.15540865 -0.25502324 -0.17454119 -0.3047734 -0.30896342 -0.005060941 0.16503578 -0.28857273
-0.15794545 -0.21613966 0.3864662 -0.024867332 -0.16252232 0.14205067 -0.28672206 0.0013169788
-0.23940997 -0.28116316 0.25690764 -0.2772661 0.261679 0.11696727 -0.13296203 0.38038227
0.31205127 -0.3474333 0.10858625 0.17586985 -0.13535778 0.23834513 0.05228752 0.00064587593
-0.2439558 0.22243723 -0.30276448 -0.2053729 0.23023394 0.04063326 -0.2873902 -0.2908333
0.39685166 -0.16974945 0.0517506 0.51317483 -0.19461255 -0.4043638 -0.3130196 0.09601086
0.34719026 0.07576964 -0.047471672 0.10196328 -0.17354225 0.12915614 -0.0066244006 -0.17107402
-0.27465063 -0.22569807 0.091006726 -0.27435368 -0.20665716 0.26924166 0.026219815 -0.34623313
-0.11420819 -0.10329029 -0.11457072 -0.091011636 -0.30947754 0.20243597
00000000: 6084 f7bd 4198 83be cd95 9e3e 581b b63d
00000010: 63f1 9b3e f642 393e abb0 8e3e ddbe 90be
00000020: dc20 a6bd 9c58 c83d 06f2 04be 625d 2cbe
00000030: 912a 72be 48c8 073e cb0a 06be 686f 753d
00000040: 6025 18bd 1aff 5cbe 59c8 98be 665d 7e3e
00000050: f4ac 5e3e 90f0 5dbd 03ff 883e 2173 ff3d
00000060: 1a25 593e 5149 f0bd 544c 3ebe be24 443e
00000070: 4adf f3bd 6a80 203e d984 403e 0bdb 10be
00000080: 2c36 8bbe 903f 6d3e 51cf 14be 7ea2 06bd
00000090: 4950 01be cc22 5dbe c8fa 203e 1e85 083e
000000a0: a7e4 a0be 7858 873e b86b 3abe 9680 c7be
000000b0: 50d0 8a3d 9f32 a63e f059 10bd 5906 40bc
000000c0: cd31 293e 382a e13d 72b8 3fbe 99f8 ae3e
000000d0: 0cc0 123e e23e 83be 600e 963c aed8 1d3e
000000e0: 7295 61be f248 ca3d 502c a63d 66ba b83d
000000f0: 1059 43bd 2bdf 04be 9488 07be d3ec 39be
00000100: e0b2 c9bc 00d8 2ab9 a5ff 9a3e 1fbc 8dbe
00000110: e953 09be d432 923d d6aa 96be c475 723e
00000120: 12d2 e7bd fe5f 973e 7abd babd cd5d e73d
00000130: f3a6 8b3e 2604 adbe ef47 51be ac50 6ebe
00000140: 7223 1fbe 6892 82be edba 32be 420b 9cbe
00000150: 7430 9ebe 40d6 a5bb 24ff 283e cebf 93be
00000160: 74bc 21be b753 5dbe e6de c53e 93b6 cbbc
00000170: 406c 26be bb75 113e 3ccd 92be 7a9e ac3a
00000180: e327 75be 9ef4 8fbe 6689 833e d2f5 8dbe
00000190: cafa 853e 898c ef3d 3327 08be 77c1 c23e
000001a0: 2fc5 9f3e c7e2 b1be 7862 de3d 3a17 343e
000001b0: 3b9b 0abe bf10 743e 702b 563d 0050 293a
000001c0: 8dcf 79be 96c6 633e f203 9bbe 464d 52be
000001d0: 72c2 6b3e 106f 263d cf24 93be 1ae8 94be
000001e0: 2430 cb3e cdd2 2dbe 70f8 533d 6d5f 033f
000001f0: 8348 47be c608 cfbe 1b44 a0be 57a1 c43d
00000200: ecc2 b13e 1d2d 9b3d a871 42bd 20d2 d03d
00000210: 0fb5 31be 8241 043e 8011 d9bb 072e 2fbe
00000220: 029f 8cbe 651d 67be bc61 ba3d 1678 8cbe
00000230: ef9d 53be 0bda 893e f0ca d63c 7845 b1be
00000240: fce5 e9bd dc89 d3bd 0ea4 eabd 4f64 babd
00000250: d773 9ebe 604b 4f3e

linear2.bias f4 [15]
-0.22930166 -0.27285957 0.3426012 0.15489672 0.21038197 -0.24349576 -0.23730087 0.08627819
-0.2327731 0.2516064 -0.17907384 -0.13115527 0.15664582 -0.2970414 0.11070913
00000000: 0ece 6abe 40b4 8bbe 6d69 af3e 3f9d 1e3e
00000010: 5f6e 573e f456 79be 00ff 72be 9fb2 b03d
00000020: 125c 6ebe 8ed2 803e 225f 37be 914d 06be
00000030: c367 203e cf15 98be 78bb e23d

linear3.weight f4 [1, 15]
0.037085563 0.11006072 0.3481047 0.24629326 -0.39626324 0.20857762 0.0698756 0.4619312
0.13473582 0.5237996 0.4975101 0.10385546 0.68171746 0.008614153 0.3676849
00000000: 08e7 173d 8467 e13d c73a b23e 4d34 7c3e
00000010: 04e3 cabe 5f95 553e f01a 8f3d 3f82 ec3e
00000020: 30f8 093e bb17 063f a5b9 fe3e 2cb2 d43d
00000030: 0985 2e3f 6022 0d3c 3241 bc3e
